…
2023-03-09 10:32:23.404504: I tensorflow/core/platform/cpu_feature_guard.cc:193] This TensorFlow binary is optimized with oneAPI Deep Neural Network Library (oneDNN) to use the following CPU instructions in performance-critical operations:  AVX2 FMA
To enable them in other operations, rebuild TensorFlow with the appropriate compiler flags.
Found 10000 files belonging to 5 classes.
Using 3000 files for validation.
Model: "sequential"
_________________________________________________________________
 Layer (type)                Output Shape              Param #   
=================================================================
 conv2d (Conv2D)             (None, 80, 80, 32)        16256     
                                                                 
 max_pooling2d (MaxPooling2D  (None, 40, 40, 32)       0         
 )                                                               
                                                                 
 dropout (Dropout)           (None, 40, 40, 32)        0         
                                                                 
 conv2d_1 (Conv2D)           (None, 36, 36, 64)        51264     
                                                                 
 max_pooling2d_1 (MaxPooling  (None, 18, 18, 64)       0         
 2D)                                                             
                                                                 
 dropout_1 (Dropout)         (None, 18, 18, 64)        0         
                                                                 
 conv2d_2 (Conv2D)           (None, 16, 16, 128)       73856     
                                                                 
 max_pooling2d_2 (MaxPooling  (None, 8, 8, 128)        0         
 2D)                                                             
                                                                 
 dropout_2 (Dropout)         (None, 8, 8, 128)         0         
                                                                 
 flatten (Flatten)           (None, 8192)              0         
                                                                 
 dense (Dense)               (None, 2048)              16779264  
                                                                 
 dropout_3 (Dropout)         (None, 2048)              0         
                                                                 
 dense_1 (Dense)             (None, 512)               1049088   
                                                                 
 dropout_4 (Dropout)         (None, 512)               0         
                                                                 
 dense_2 (Dense)             (None, 128)               65664     
                                                                 
 dropout_5 (Dropout)         (None, 128)               0         
                                                                 
 dense_3 (Dense)             (None, 5)                 645       
                                                                 
=================================================================
Total params: 18,036,037
Trainable params: 18,036,037
Non-trainable params: 0
_________________________________________________________________

Epoch 1/40

Epoch 1: val_accuracy improved from -inf to 0.20033, saving model to checkpoints/checkpoints_01
WARNING:absl:Found untraced functions such as _jit_compiled_convolution_op, _jit_compiled_convolution_op, _jit_compiled_convolution_op, _update_step_xla while saving (showing 4 of 4). These functions will not be directly callable after loading.
…
